…
        "outputId": "afe39559-b55e-4a84-a7b6-d2daf69a403b"\par
      \},\par
      "execution_count": 16,\par
      "outputs": [\par
        \{\par
          "output_type": "stream",\par
          "name": "stdout",\par
          "text": [\par
            "Model: \\"sequential\\"\\n",\par
            "_________________________________________________________________\\n",\par
            " Layer (type)                Output Shape              Param #   \\n",\par
            "=================================================================\\n",\par
            " conv2d (Conv2D)             (None, 62, 62, 32)        896       \\n",\par
            "                                                                 \\n",\par
            " max_pooling2d (MaxPooling2D  (None, 31, 31, 32)       0         \\n",\par
            " )                                                               \\n",\par
            "                                                                 \\n",\par
            " conv2d_1 (Conv2D)           (None, 29, 29, 32)        9248      \\n",\par
            "                                                                 \\n",\par
            " max_pooling2d_1 (MaxPooling  (None, 14, 14, 32)       0         \\n",\par
            " 2D)                                                             \\n",\par
            "                                                                 \\n",\par
            " flatten (Flatten)           (None, 6272)              0         \\n",\par
            "                                                                 \\n",\par
            " dense (Dense)               (None, 128)               802944    \\n",\par
            "                                                                 \\n",\par
            " dense_1 (Dense)             (None, 128)               16512     \\n",\par
            "                                                                 \\n",\par
            " dense_2 (Dense)             (None, 128)               16512     \\n",\par
            "                                                                 \\n",\par
            " dense_3 (Dense)             (None, 128)               16512     \\n",\par
            "                                                                 \\n",\par
            " dense_4 (Dense)             (None, 128)               16512     \\n",\par
            "                                                                 \\n",\par
            " dense_5 (Dense)             (None, 6)                 774       \\n",\par
            "                                                                 \\n",\par
            "=================================================================\\n",\par
            "Total params: 879,910\\n",\par
            "Trainable params: 879,910\\n",\par
            "Non-trainable params: 0\\n",\par
            "_________________________________________________________________\\n"\par
…
